my_mnist_model.pt (torch, 575323 bytes, 10 tensors)

weight f4 [128, 784]
00000000: 3808 4e3b 9140 293c 5767 a63b 4508 b53c
00000010: 9e49 aebc 0df0 99bb d65e 0b3b a9c1 8039
00000020: c8b3 5b3b 0724 cb3b b10d ba3c f978 dfbc
00000030: 6b89 99bc d905 8c3c c7fc fa3c d56b 0f3c
00000040: 7e2a 113d 29a0 81bc 4b08 cf3c 08bc 2a3b
00000050: 9530 ce3c df71 41bc 1f16 1dbc ad59 113c
00000060: d8eb 4d3b 9c2e 083d ce5c 903b 6362 d0bc
00000070: a8d0 6f3b bb9d b939 e73f ba3c 86c9 0b3d
00000080: 1074 92bc 67cc e3bc 834f a2bc c9a8 d7bc
00000090: 82bf 523b 953d 633a 755a 0e3d 474c e9bc
000000a0: eb21 e43c c35c 9f3c 6d85 a2bb 3bd9 4abc
000000b0: ab36 a03c c116 76bc 1fe8 9c3c 6528 f1bc
000000c0: 99f9 963c f2d7 003d 9ba9 a6bc 77ce f63b
000000d0: 64a1 0c3d bf52 fd3b 9206 ffbc 717e 67bc
000000e0: 7b6a c8bc 3b13 fb3c 258e 8cbc c015 813c
000000f0: c63c 0b3b b5ef 02bc e7f8 f63a b6c9 933c
00000100: 4395 853c be5f 993c 001b 2a3c 1bf0 cfbc
00000110: 1d62 313c 27d2 533c a24b 05bd 773b 01bd
00000120: 3cf4 ffbb 2845 36bb 3e6f 81bc f6e6 4cba
00000130: 4783 d33b 9bcf 3bbc 11e3 2cbc 4711 f93c
00000140: 5488 78bb 363e 0d3d 31f7 1c3c 0a50 0a3d
00000150: c3be 44bc 39af acbc 8ba5 85bc 0b2d bebc
00000160: 2dfb 07bd 4d89 0a3c 4b03 083c ff8f f73c
00000170: 4207 dd3c 1262 013d 4f69 453c cb81 c8bc
00000180: 3c46 87bb 409b ab3c 8ab1 90bc f74c f2bc
00000190: a538 edbc f10d 59bc 4872 933b 45c8 3f3c
000001a0: cde1 793c 314e 193c 55f7 043c 4f28 f93c
000001b0: 456d a63c 86c4 0f3b 3532 adbc b529 d7ba
000001c0: 81c3 773c c017 efbc c688 0b3b 5910 433a
000001d0: 553c 4d3c 7eef 95bc 9578 803a f29c a5bc
000001e0: 6571 ec3c 351b 0dbc f072 76bc 17f9 e33c
000001f0: 9664 b13b a1a4 d63c 007d 0ebd ce87 f73c
00000200: 613d 9bbb 35d4 3e3c 2b84 283c 273b ccbb
00000210: 3e8e 73bc 5352 95bc 699c c53c 443b e7bc
00000220: e8ed 27bb c57f 0d3d 42aa 02bd a13d 933c
00000230: f53a 8b3c 035c 42bc 8bee afbc e94c 51bc
00000240: b234 78bc eaf9 f2bc e1b0 a7bc 62ea b1bc
00000250: 1f0e d33c a6bc 8fbc be0c 013d 1962 0c3d
00000260: c48f a639 a091 5bbb 31ae ab3c fe38 86bc
00000270: 8cbc 94bc 427f d23c 113c 93ba 43ff 9ebc
00000280: 8678 b13c 6cab ce3c e1e3 8f3c 267e 813b
00000290: 7de7 debc 957d c13c 6a42 03bd ed19 9b3c
000002a0: 09b0 62bc 639a 14bc 2d57 bc3c f0fc d83c
000002b0: acbf 4fbc 20d8 103d 8479 763c 643a a3bc
000002c0: 743d 1fbc 0905 253a a61d 153c f3e4 d4bb
000002d0: e0c5 38bc 801f 85bc e859 6abb ccda 65bc
000002e0: dc99 b63c c4ba 693c 83a9 8a3b ed20 fb3c
000002f0: ca4b 1abc b39b 01bd 5304 41bc c49a a93c
00000300: dfe6 a5bc 36e3 013d 673f b3bc d835 23bb
00000310: a53c 5c3c 0a03 76bb 6bc4 ba3a 8e02 ddbb
00000320: 5ccf bdbc f503 dbb9 8976 3c3c 5a65 013d
00000330: d83d caba 17e4 e23c ebfb 893c 2d8a c93c
00000340: 64ab 0c3d 8f15 a03c bba5 dcbb 5fab 473c
00000350: 8e3c 96bc a161 85bc 4ad5 c63c a441 043d
00000360: 2a71 03bb a2cd 093d 94de 0bbd 9586 053d
00000370: 0309 053d 48d6 e1bc 6e02 ffbc dba5 46bc
00000380: 5c5d 053d e9ba 023c d0a4 e5bc 1139 e83c
00000390: 1930 cf3b eb68 2b3b 286b c13b ac26 05bd
000003a0: 360a b33c 4b01 a13c 3123 bdbc 1054 e43c
000003b0: cac9 cc3c 9e76 6dbc 8555 dfbc eb12 5c3c
000003c0: 1a45 403c 05b5 4a3c 6367 edbc 3e80 8e3b
000003d0: b207 723c acec 933b 675d 013c 4cc9 aa3c
000003e0: 33ca a83c be45 0c3d f824 313b 5b35 6839
000003f0: dddf 7dbc 58cf 15bb 3171 a03c 4a2b 7cbc
0.0031438004 0.010330335 0.005078237 0.02209867 -0.021275338 -0.0046978057 0.0021266243 0.0002455835
0.0033523906 0.006199363 0.022711607 -0.027279364 -0.018742284 0.017092632 0.030638112 0.0087537365
0.035440914 -0.01582344 0.02527251 0.0026052017 0.02516965 -0.011806934 -0.009587794 0.008871478
0.0031421091 0.033247575 0.0044055944 -0.02543754 0.0036592875 0.00035403468 0.02273555 0.034127735
-0.017877609 -0.027807428 -0.019813305 -0.0263256 0.0032157605 0.0008668539 0.034754235 -0.028478755
0.027848205 0.019453412 -0.0049597532 -0.012380893 0.019557318 -0.015020073 0.019153653 -0.029438207
0.018429564 0.03145594 -0.020344546 0.0075319367 0.0343336 0.0077308114 -0.031131063 -0.014129267
-0.024464836 0.030648818 -0.017157624 0.015757442 0.002124594 -0.007991721 0.0018842489 0.01804052
0.016306525 0.018722411 0.010382414 -0.025383046 0.010826615 0.012928522 -0.032542832 -0.03155085
-0.0078110974 -0.0027812216 -0.015800115 -0.0007816398 0.0064548585 -0.011463071 -0.010552184 0.030403746
-0.0037923055 0.034483157 0.009580419 0.033767737 -0.012008372 -0.021079646 -0.016314289 -0.023214838
-0.033198524 0.008455587 0.008301566 0.03022003 0.026981 0.031587668 0.012049033 -0.024475953
-0.0041282456 0.020948052 -0.017662782 -0.029577715 -0.028957674 -0.013247953 0.0044997074 0.011705463
0.015251589 0.009357021 0.008115609 0.030414728 0.020315776 0.0021937205 -0.021142105 -0.0016415628
0.015122295 -0.02918613 0.002129124 0.00074410957 0.012526591 -0.018302675 0.0009801561 -0.020216439
0.028862664 -0.008612444 -0.015042052 0.027828736 0.005413602 0.026201548 -0.034787178 0.030216124
-0.0047375415 0.011647274 0.010285418 -0.0062326374 -0.014865456 -0.018227732 0.024122434 -0.028226502
-0.002562398 0.03454568 -0.03190065 0.017973723 0.016995886 -0.011862758 -0.02147605 -0.0127746845
-0.015149282 -0.029660184 -0.020470085 -0.021718208 0.02576357 -0.01754601 0.031506293 0.03427324
0.000317691 -0.0033503547 0.020957084 -0.016384598 -0.018156312 0.025695447 -0.0011233111 -0.019408828
0.021663915 0.025228225 0.017564716 0.0039518056 -0.027209992 0.023619452 -0.03204576 0.01893326
-0.013835915 -0.009070012 0.022990787 0.026487797 -0.0126799755 0.035362363 0.01504362 -0.019925304
-0.009719241 0.0006295001 0.009101307 -0.0064970194 -0.011277646 -0.016250372 -0.0035759155 -0.014029216
0.022290163 0.01426572 0.004231633 0.030655349 -0.009417484 -0.031642627 -0.011780816 0.02070368
-0.02025169 0.031710826 -0.021880819 -0.002490392 0.013442193 -0.0037538433 0.0014249211 -0.0067446893
-0.023170166 -0.00041773883 0.01150287 0.031590797 -0.0015429808 0.027696652 0.016843757 0.02460202
0.03434314 0.01954153 -0.006733624 0.012186854 -0.018339422 -0.016281905 0.024271626 0.032289162
-0.0020056465 0.033643372 -0.034147814 0.03259905 0.032479297 -0.027567998 -0.031129088 -0.012124504
0.032559738 0.007979133 -0.02803269 0.028347524 0.0063228724 0.0026155065 0.0059026666 -0.032507583
0.021855455 0.019653937 -0.02308807 0.027872115 0.024998564 -0.014493613 -0.027262459 0.013432245
0.011735225 0.01237226 -0.028979963 0.0043487838 0.0147723425 0.0045142975 0.007895804 0.020847939
0.020604229 0.0342462 0.0027030092 0.0002214512 -0.015495268 -0.0022859182 0.019585224 -0.01539118

bias f4 [128]
00000000: 9623 003b 9f08 823c 32d7 903c ccc8 803c
00000010: a571 0d3d 087c f53c 9783 883c 2657 273c
00000020: 8077 8dbc 293d 8b3c cab6 9bbc 0dd2 9dbb
00000030: af29 2a3c bf2b 103c 6a4c 90ba 8d58 37bc
00000040: ca00 45bb b92e 69bc 18c9 2cbc d941 96bc
00000050: 3ecc 113d 037c 51bc ad58 e53b fc3f dd3b
00000060: 1815 503c 8cdd a1bc ea31 acbc b0c9 fd3c
00000070: 8158 06bc f99c 86bc 31b5 bcbc a936 edbc
00000080: e0c6 b93c 7a3b 02bd baba 46bb 57b8 a8bc
00000090: 2d2e 0dbc 14d5 573b 9543 613c 21fb 94bc
000000a0: 06d4 e33c 4248 02bd 389d 2bbc 1b9a 81ba
000000b0: 5e82 5d3b 2f32 943c 6079 69ba a951 eebc
000000c0: e211 acbc afbb f4bc c1ab 5ebc 3ffb 01bd
000000d0: a94f a0bc decc c6bc 3627 c33c 3c3d 08bd
000000e0: 29a3 86bc 29e3 2abb 84c8 f63b 3f86 a23c
000000f0: e1cf 0fbc c05d 213b 1fd8 65ba 13cd 133d
00000100: 064b e03c 89d3 ba3c c078 32bc 72ad 9b3c
00000110: e2c5 8ebc 9521 a93c 8fd0 edbc b2b3 c63c
00000120: 737b a4ba 4b64 b23c 3787 4dbc 8219 a8bc
00000130: 81ba aa3c b319 b83b 8f54 2fbc 5900 143d
00000140: 00d1 b43c b48a 893c f163 29bd 50ab 103d
00000150: ee92 8d3c 9322 ea3c df53 d4bc c88a 40bb
00000160: 70a9 233c d310 d13c 5303 06bd c9a6 d83c
00000170: 22c2 12bc 7ff0 d3bc f489 d8bb fa66 04bd
00000180: 0617 34b9 e167 303b 111b 273c 818b a73c
00000190: c761 bebb 5649 09bd 27fc 903c 74b0 dc3b
000001a0: 8f60 10bd ba2c d5bc b516 6cbb 718d 8abc
000001b0: 942c b3bb c74a dbbc a7d0 e93c 697b c83c
000001c0: b477 833c 72e1 8b3c 5984 13bc 8738 e0bc
000001d0: 2618 9ebc 14ff cebb e6de 533c 90ce 89bc
000001e0: 2de0 12ba 61f0 df3c 00d3 4fbb c546 a93c
000001f0: 132d 67ba 8f1b 03bc 3778 013d 8b95 f5bc
0.001955246 0.015873251 0.017680738 0.015720747 0.034532208 0.02996637 0.01666431 0.010213649
-0.017268896 0.016996937 -0.019008059 -0.0048163 0.010385915 0.008799492 -0.0011009101 -0.011190546
-0.0030060285 -0.014232331 -0.010545991 -0.018341945 0.03559517 -0.012785914 0.0069990964 0.0067520123
0.012700342 -0.019758962 -0.021019895 0.030979961 -0.008199812 -0.016432272 -0.023035618 -0.028956728
0.022677839 -0.031795003 -0.00303237 -0.020595713 -0.008616966 0.00329334 0.013749023 -0.018186154
0.027811062 -0.03180719 -0.010474496 -0.0009887846 0.0033799629 0.018090336 -0.0008906331 -0.029091673
-0.021004621 -0.02987465 -0.013590754 -0.031733748 -0.019569235 -0.02426761 0.023822408 -0.033261523
-0.016435223 -0.002607534 0.0075312275 0.019839404 -0.00877759 0.002462253 -0.0008767861 0.036084246
0.027379524 0.022805946 -0.010893047 0.019003604 -0.017428342 0.020645896 -0.029030113 0.024255607
-0.0012548998 0.021776339 -0.012544445 -0.020519976 0.020840885 0.005618298 -0.010701313 0.036133144
0.022072315 0.016789772 -0.041355077 0.035319626 0.017281976 0.02858094 -0.0259189 -0.0029379595
0.0099891275 0.025520718 -0.032718014 0.026446717 -0.008957418 -0.025871513 -0.006608242 -0.03232477
-0.00017174715 0.0026917385 0.010199324 0.020452263 -0.005809996 -0.033517204 0.01769836 0.006734902
-0.035248335 -0.026022304 -0.0036024277 -0.016913148 -0.0054679606 -0.026769055 0.028541876 0.024472909
0.01604829 0.017075274 -0.009003722 -0.027370704 -0.019298624 -0.006317029 0.012931561 -0.01682213
-0.0005602863 0.027336301 -0.003171146 0.020663628 -0.0008818667 -0.008002176 0.031608786 -0.029978534

weight f4 [128, 128]
00000000: 1848 0cbd 30ab e0bb 86fa b2bd 295f 83bd
00000010: fb15 303d cac0 a33d c539 2ebd 0054 953c
00000020: a459 7b3d 024b b1bd 5393 1d3d b9a2 4fbd
00000030: 49ca fa3c 91e0 443d 666b d8bd 8541 16bd
00000040: 14ff a8bc 169d 013d 1e91 a5bd 1c23 4a3d
00000050: 9319 9f3d 5db7 8a3d 18b5 24bd 9d87 06bd
00000060: a0ba 7f3b 183e 80bd 6306 ee3d fbd0 bfbc
00000070: 286a 58bc 9c43 133e 7c50 01be 6bdc 3ebc
00000080: 5ada d63c ebc6 7d3d 1764 dc3d 97dd 553d
00000090: db89 a0bd 1254 6abb 8d28 083d b715 ae3d
000000a0: a6f1 283d 2385 05bd f147 5d3d 578e 8c3d
000000b0: a786 31bd 9e80 af3c 7a34 4d3c ed0b 05bd
000000c0: f35e 253d c887 2a3c 8f67 64bd b31b 1c3d
000000d0: cf63 b3bd 5c18 c23d 3191 8abd 2125 a4bd
000000e0: 92ca 863d d362 953d 9467 b0bc 1fb4 5bbc
000000f0: b0f8 09bd 51d7 c03d 2031 8a3d 8d0e 5e3d
00000100: 0fdc 3abd 83b4 fe3c 9ccd 613d 2392 b63b
00000110: c507 8ebc dbe7 a83c 863e 663c df67 78bd
00000120: 254a 4b3c 45be d93d 6262 be3c e993 cfbd
00000130: 1db4 adbd 3c14 06bc 0937 123c 7def bd3d
00000140: f134 0ebd 3d78 1fbd d091 b93c 6c4b 333d
00000150: dee5 223d 924f f43c 89d9 0fbd 1952 1d3d
00000160: 9bec a8bc 8bc7 78bd c245 9a3d 520a 6b3d
00000170: 40a5 77bd bc21 53bd f845 99bd 80d4 78bb
00000180: eef7 883c 4ba3 563c e762 3abd d469 903d
00000190: 8fea 8bbc a23d 31bd 2604 af3d 2236 4c3d
000001a0: 3613 5ebd 5c4b 8e3d cff2 4f3d 0cf7 e93c
000001b0: 492a 84bd 6291 33bd a78c 353d 50fb 883d
000001c0: 3f18 86bc d287 02be 4fff 8abc 2211 9f3b
000001d0: 4bdd 993d 64f7 3bbd 121e 95bc 1134 763c
000001e0: bef7 963c c0f3 e43c ebb3 4e3d d32f 0b3d
000001f0: 3740 ae3d 25eb 4bbd 91eb d23c ecbd 2c3d
00000200: 1794 a6bc fa52 97bd 381b 603d 571b 293c
00000210: e013 343d 1c74 633d 9dad 26bd 04a7 473d
00000220: 252a a93d 750d a03d fade 1bbd 2f97 a8bc
00000230: 15c0 6bbd dde8 78bd 37b6 c33d 51f0 db3d
00000240: d4fe 963d adc5 383b 434a 753d 18fe abbd
00000250: 2f06 683c aa62 e4bd 9e4d d63b 1f10 ac3d
00000260: f0f0 c63c 41f4 1ebd 9761 dbbd e89e 99bc
00000270: 1662 e4bd d7d9 4e3d 1b53 b73d 15cb c7bd
00000280: 5120 cabc 9368 dcbd 6fd3 70bd 5e41 cd3c
00000290: 5ba7 f3bc 014a 803d 7f43 60bd 0db0 1f3d
000002a0: ced7 b4bd 22b6 3a3d 99aa 6abd 84ca a4bd
000002b0: 3da4 4abd 37d8 7c3d 6392 a7bc 547e 84bc
000002c0: 6afd 86bd 389e 1a3c b355 36bd 83f2 d9bd
000002d0: 6bc8 afbd a61e 483d f823 c73c 57fc 9d3d
000002e0: 1a36 1fbd 87d9 713d 70b6 a7bd 8d09 f5bd
000002f0: 2436 d33d d8b5 053d 42a0 2dbc 64db f1bc
00000300: 305c fa3c e4da 283d 6ff3 b8bc ad8f a5bd
00000310: 6dbd 8f3d f05d 38bd 38c9 933d 9ecd 99bd
00000320: 0b4a d2bc ac2f 12bd dd66 c13c 27f7 c7bd
00000330: 7c26 883c 44d3 b8bc 166d 72bd 9044 093d
00000340: 82e7 283d 7471 493c 091b 9cbd ad97 67bd
00000350: 055e 463d e6dc 26bd 7a01 d13c c3a1 f5bd
00000360: ceab 893d 709a de3d c70a 04bd 2d3b bb3c
00000370: 5687 68bd 1289 59bc d711 783d f242 cabc
00000380: 670b e8bc dbc6 3b3c 1f7c ed3d 87e1 873d
00000390: cb8e 8dbd 2780 a3bd 82ba 023e a93e 6e3d
000003a0: ac6d 2abd a92c 81bd d109 b33d 291b d3bc
000003b0: 92a6 a03d b02d 873d a063 6abd 70db 5fbd
000003c0: 4221 b93d f134 ac3c ccd9 5b3d 26f0 fa3c
000003d0: e85c d33d a8f8 063d e34f 7f3d e8d3 383c
000003e0: 75aa 613d 58fd 87bd b698 40bd adf1 b3bd
000003f0: 4f06 c43d d7a7 97bc 9b48 7abd fc63 71bd
-0.03424844 -0.0068563446 -0.0873919 -0.06414635 0.042989712 0.07995756 -0.042535562 0.01822853
0.061364785 -0.08656885 0.038470577 -0.050692294 0.030614035 0.048065726 -0.105673596 -0.036683578
-0.020629443 0.03164395 -0.080843195 0.04934989 0.0776855 0.06773255 -0.040211767 -0.032844175
0.003902115 -0.062618434 0.11622312 -0.02341508 -0.013208903 0.1438126 -0.12628359 -0.011649231
0.026227165 0.06195728 0.10761278 0.052213278 -0.07838794 -0.0035755676 0.033241797 0.085002355
0.04124608 -0.032597672 0.054023687 0.06863087 -0.043341305 0.021423634 0.012524718 -0.032482076
0.040373754 0.010408349 -0.055762824 0.038112354 -0.08759271 0.094773024 -0.06765974 -0.08014894
0.06581606 0.0729424 -0.021533765 -0.013409643 -0.033684433 0.09416068 0.06747651 0.054213095
-0.04562002 0.031091934 0.055127725 0.00557162 -0.01733769 0.02061837 0.014052993 -0.060645934
0.012407814 0.10631994 0.023240272 -0.101356335 -0.084816195 -0.008183535 0.008924254 0.092741944
-0.034718458 -0.038933028 0.022652537 0.0437731 0.03977 0.029823098 -0.035119567 0.038408373
-0.020620635 -0.060737174 0.075328365 0.05738289 -0.06046033 -0.051545843 -0.074840486 -0.0037968457
0.016719785 0.0131004555 -0.045504477 0.07051435 -0.01707962 -0.04327167 0.08545713 0.049856313
-0.05421754 0.069479674 0.05076867 0.028560184 -0.06453378 -0.04383982 0.04432359 0.06688559
-0.016368983 -0.12747124 -0.016967444 0.0048543373 0.075129114 -0.045890227 -0.018202815 0.015027062
0.01842868 0.02794826 0.050464552 0.033981156 0.08508342 -0.0497848 0.025747092 0.04217331
-0.020334287 -0.073888734 0.054713458 0.01032146 0.043964267 0.055530652 -0.040692914 0.048743263
0.082599916 0.07815067 -0.038054444 -0.020579902 -0.05755623 -0.06076895 0.09556239 0.10739196
0.07372823 0.0028193996 0.059885275 -0.08398074 0.0141616305 -0.11151631 0.0065400144 0.08401512
0.02428481 -0.038807157 -0.10711973 -0.01875253 -0.11151521 0.050500717 0.08951398 -0.09755532
-0.024673613 -0.107621334 -0.05879539 0.025055584 -0.029742887 0.06264115 -0.05475187 0.038986254
-0.08830224 0.04558385 -0.0572916 -0.08046439 -0.049473036 0.061729636 -0.020455545 -0.01617352
-0.06591304 0.009437136 -0.044515323 -0.106419586 -0.085831486 0.048857354 0.024309143 0.07714146
-0.038869955 0.05904534 -0.08189094 -0.11964712 0.10313061 0.032644123 -0.0105972905 -0.029523559
0.030561537 0.041224375 -0.022577016 -0.080840446 0.07018552 -0.04501146 0.07216114 -0.075099215
-0.025670072 -0.035689995 0.02360862 -0.097639374 0.016619913 -0.022561677 -0.059186064 0.033512652
0.041236408 0.012295116 -0.07622344 -0.056541134 0.048429508 -0.04073801 0.0255134 -0.11993744
0.06722222 0.108693 -0.03223684 0.022855366 -0.05676969 -0.013277309 0.06056389 -0.024690125
-0.02832575 0.011460985 0.1159594 0.06634813 -0.06912001 -0.079834275 0.1276646 0.058165226
-0.041608498 -0.063073464 0.08742107 -0.025769787 0.07844271 0.06600511 -0.057223916 -0.05465263
0.090395465 0.021021338 0.053674504 0.03063209 0.10320455 0.03295198 0.062332045 0.011280991
0.0550942 -0.06640118 -0.047020636 -0.0878633 0.09571516 -0.01851265 -0.0611044 -0.058933243

bias f4 [128]
00000000: bf10 7c3d 02ba 72bd 7860 153d c408 68bd
00000010: 05c8 333d dbf4 723d 4737 5cbd a9c7 65bc
00000020: 9bfc 2fbd e9ad 45bd 7f97 46bd 5938 f0bb
00000030: 36e0 5db9 4f41 8e3d 28fe 363d ad5d 5e3d
00000040: dcf4 a53d 79e7 8ebd cfae 8fbd 9980 8ebc
00000050: fca4 713d 2f31 66bc c38c d1bc 9f5c 823d
00000060: 578d 3c3d a0e3 36bd 3606 bd3d 9939 6b3d
00000070: 1208 eb3c 2576 b33d 6239 09bd 6dc6 febc
00000080: 87a8 4ebd 9319 7cbd de7e 463d a9a2 94bd
00000090: 66dd 9fbc cde1 8bbd 9d96 9bbd 26c9 a13d
000000a0: c313 573d 49dc a8bd b935 3fbd 949c 88bb
000000b0: 93df 8bbd 807c b3bb fdcb e3bc bab4 49bd
000000c0: 5b2b 56bd 6327 7abd b231 493c 3b46 8abd
000000d0: f414 51bd 5a97 923d ac60 553d a041 5dbd
000000e0: bc3c 81bd 7578 26bd b961 3dbd aaa3 063d
000000f0: fd36 943c 275d 683d 9caa c23d f3d9 a43d
00000100: a1d4 50bc 2653 703d f6f9 61bc 8541 133d
00000110: e7a9 b93d fe0d d9bc c112 99bc a2b4 e23d
00000120: 668d a4bd 5669 efbc 3c24 9bbc fbe1 47bd
00000130: feb3 b1bb 1410 96bd 124d c03d 501f 073d
00000140: 0591 2ebd 44d2 9bbd a61d 3dbd 9b9e 953a
00000150: f2a6 883d 32f1 593d 66df 223a 965b a0bd
00000160: 699f 80bd 2c03 b23d 12cf c03d b278 823d
00000170: 98fb 6a3c 319b a7bd 793d a1bd 5a68 693c
00000180: 32b5 ad3d 1f7d 083d 74e4 2c3b 551c f53c
00000190: 7794 6e3c b99f b2bd 863f 9e3d e4fa a1bc
000001a0: e8be 913d f2c6 aa3d 86ba a83d 1e58 b2bc
000001b0: 2864 483d b3c4 58bd 5b74 70bd 1f91 783d
000001c0: 0a9f 7abd 050f b33d 0108 873c 860b 0bbd
000001d0: 454f 003d 101a b33d a1fa 05bd 0eb0 273d
000001e0: b985 fe3c 0381 0f3d ee2e aabd 4bb1 10bd
000001f0: ddf8 e13c ae52 1dbd 2338 89bd 45a1 9bbc
0.061539408 -0.059259422 0.036468953 -0.056648985 0.043891925 0.059315544 -0.053763654 -0.0140246535
-0.042965513 -0.048261557 -0.04848432 -0.007330936 -0.00021159727 0.069460504 0.044675976 0.054288555
0.08103344 -0.06977744 -0.07015764 -0.017395305 0.058995232 -0.014049812 -0.025579816 0.06365322
0.04603323 -0.044650674 0.092297 0.057427976 0.028690372 0.08762769 -0.03350199 -0.031100476
-0.05045369 -0.061547827 0.048460834 -0.072575875 -0.01951475 -0.068301775 -0.075970866 0.07899694
0.05250908 -0.08245141 -0.046682093 -0.004169056 -0.06829753 -0.005477488 -0.02780723 -0.04924462
-0.05228744 -0.06107272 0.012279915 -0.06751677 -0.051045373 0.07157774 0.052094147 -0.054017663
-0.06310412 -0.04064222 -0.046235774 0.032870926 0.018092627 0.056729462 0.095051974 0.08049383
-0.012746007 0.058673047 -0.0137925055 0.035951156 0.090656094 -0.02649593 -0.0186857 0.11069609
-0.08034782 -0.029225033 -0.018938176 -0.048799496 -0.005423068 -0.073272854 0.093897 0.032988846
-0.04261877 -0.07608464 -0.046170853 0.0011415066 0.06672467 0.053208537 0.00062130985 -0.07829969
-0.06280405 0.08692011 0.094144955 0.06370677 0.014342211 -0.08183897 -0.07873053 0.014246071
0.08481826 0.03332245 0.0026381286 0.029920736 0.014561764 -0.08721871 0.0772696 -0.019772954
0.071164906 0.08338727 0.082387015 -0.021770533 0.04892364 -0.052921962 -0.058704715 0.060685273
-0.061186828 0.08743099 0.016483309 -0.033946536 0.031325597 0.087452054 -0.03270972 0.040939383
0.031069623 0.035035145 -0.083097324 -0.03532533 0.027584488 -0.038408928 -0.0670016 -0.018997798

weight f4 [128, 128]
00000000: 3762 0d3d e2af f43c b7f8 b43c c6e1 193d
00000010: 0d71 01bc 1c98 443a eb14 46bb 7770 09bb
00000020: 0e3b 7abd c06b 02bd 531c 9c3d 8029 af3d
00000030: 713f 933d b5a7 64bc ea63 02bd 80e8 b2bd
00000040: 81da 973d 3a12 613d ff2c c6ba 74df 42bd
00000050: 17d6 6fbd 5b13 ab3d 0cd2 3bbd f1b4 293d
00000060: 6d8a 4fbd eb39 adbd 1ca0 873d 37ed 953c
00000070: e717 acbd c403 d63c ff3e aabd df1d 093d
00000080: 0fdc a0bc d878 9c3b ed10 3bbd 0ad3 78bd
00000090: bbf1 b3bd 491b 483d 9f76 643c 1e57 8abd
000000a0: 3b92 b0bd ffa3 3fbd 7520 3b3d f690 a2bd
000000b0: 9327 8abd 0824 8abd b5d4 26bd 2a77 693d
000000c0: 13e0 8b3d 2711 aa3d b47c 203c 89b2 9f3d
000000d0: 3b72 b4bc 1647 da3c ca2a 213c e7f6 5ebd
000000e0: 8be6 b33d 401a 803d 223b 5abd c4ca 33bd
000000f0: 1946 9fbc c774 4abd 5aca 1abd 99c5 b4bd
00000100: 89a5 02bd 0db4 36bd 5512 b3bd 8933 a7bd
00000110: 3027 af3d 58f6 c73b ad06 3ebd 072d 963d
00000120: 90e7 e93c a814 a13d fdb6 873d 906b 96bc
00000130: 5eac b13d 43ef a53d 831c a7bd cb64 99bd
00000140: 0c66 2c3d 7a63 3cbd 2b19 8dbd 0733 d33c
00000150: d0b3 55bd 7080 4abd 6000 cebc 575f 953c
00000160: 98c5 9c3c 752d 8ebd 5678 32bd 1e06 d93c
00000170: c0dc 8ebc 4874 523b 253d 6abc 6b68 f8bc
00000180: dc70 9abd 767d b03d 410f 35bd c922 19bd
00000190: c04e 40bd 62f0 7e3d 9641 a7bd 9bde 0ebc
000001a0: bd5d c83c 1e77 273d 2a85 a93c cf41 253d
000001b0: c66c 4e3d a88a 63bd f163 983a d985 913d
000001c0: 1c3a 49bd 9de7 51bd aa77 1bbd 7080 1abd
000001d0: 630b 68bd 06e3 65bd 3724 a9bd e586 41bd
000001e0: 1e6d 2d3d dd41 903d 94b6 6e3c 6f14 3f3d
000001f0: 8720 7e3d 79db 3e3c 83d5 5ebd 233b 633c
00000200: 8d49 893c dced 8bbd 1f50 ae3d 2e03 13bd
00000210: bbd0 a73d 9641 943d fb66 b03d 9ce5 0a3d
00000220: 1fef ec3d 3407 e4bc dd54 56bd d512 953d
00000230: d23c 5e3b 68e3 51bd 10de a33c 5810 c3bc
00000240: 1146 3b3d c512 a13d 0823 45bd f672 223c
00000250: 1839 2f3d 6ae0 103d 6e7c 863d 52be 9f3d
00000260: b6c3 653d 4577 ddbb c107 09bc 45ff 463d
00000270: fdb7 14bc c143 273d 62fa a4bd 953a 87bd
00000280: dc4b df3c 9102 003d 431e bfbd 1fad 43bb
00000290: d3e9 fb3b 54c3 423c 897c 3c3d 3638 9d3d
000002a0: b5df ec3b eda8 05bd 73ab b1bd ae94 f2bc
000002b0: fb13 5b3c 8abc a9bd 5a91 a73d 3319 963d
000002c0: 1e9f c2bc ebc7 a23d c0c4 b4bd 7529 0c3d
000002d0: ff5d 84bd 5408 7e3d 9271 9a3d ea8d f63d
000002e0: aeab 87bd 3af4 d4bd cd90 7f3d 1c4c 633d
000002f0: 8341 e7bd bdcd 4c3c 7813 0abe 44c7 12bd
00000300: efd7 093c 6f6f e83d 16d7 893c 2d4b 9a3d
00000310: b1ea 823d 468b 283d cab7 933d 600b 8cbd
00000320: 08f6 9bbd ebb9 b3bc 1072 053d f956 b43d
00000330: 86a1 1bbd b117 21bc 953a c5bc 626b 3d3d
00000340: a823 8abd e269 773d a641 163d 5e81 b7bd
00000350: 901e b6bc d6b8 593d 36ba ecbd 9a5e 9e3c
00000360: 6622 b5bc 82c2 3bbd b301 a93c d5f5 48bb
00000370: b0b2 90bc ac0c 973d fea3 77bc 09c7 8a39
00000380: 52ed a53d 773c 96bd 7ca9 55bd 6cd3 ac3d
00000390: fe4a 28bd 095f 8abc f3e6 693d 5f78 823d
000003a0: 98a4 acbd f607 123d da47 cbbc a788 76bd
000003b0: ede7 c93d 8e83 223d f310 94bd 1c52 0b3d
000003c0: a714 e53c eb5f a7bd fade 51bd 44af 3e3d
000003d0: cb3f 713d ab52 88bb 6185 8b3c bb1f 03bd
000003e0: 9154 213e f9e2 67bd 3885 39bd 0bec 9d3c
000003f0: fbdc 8ebd e455 49bd 2932 74bd 68cd 4b3d
0.034517493 0.029869024 0.022091253 0.03756883 -0.007900489 0.00074994727 -0.003022487 -0.0020971575
-0.061091475 -0.03184104 0.0762259 0.08552837 0.07189835 -0.013956 -0.031833567 -0.08735752
0.07414723 0.054949023 -0.0015119611 -0.047576383 -0.05855378 0.08353301 -0.045854613 0.041432325
-0.050669122 -0.084583126 0.06622335 0.01830159 -0.084029965 0.026124842 -0.08312797 0.033475753
-0.019636182 0.004775148 -0.04567044 -0.060748138 -0.08786341 0.048854146 0.013944297 -0.067548975
-0.08621641 -0.04678726 0.04568525 -0.07937805 -0.067458294 -0.06745154 -0.040730197 0.05699841
0.06829848 0.08304053 0.009795357 0.07797725 -0.022027126 0.026645225 0.009836862 -0.054434683
0.08784207 0.06255007 -0.05327905 -0.043894544 -0.019442605 -0.049427774 -0.037790634 -0.08826751
-0.031896148 -0.044605304 -0.08743731 -0.081641264 0.08552396 0.0061023645 -0.046393085 0.07332807
0.0285528 0.07865268 0.06626699 -0.018361837 0.086754546 0.08102276 -0.08159735 -0.07489928
0.042089507 -0.045993306 -0.06889566 0.025781168 -0.052173436 -0.049438894 -0.025146663 0.018233938
0.019137189 -0.06942264 -0.043571793 0.026492175 -0.017439246 0.0032112766 -0.014296805 -0.030323228
-0.075410575 0.0861768 -0.044204 -0.03738669 -0.0469501 0.062240966 -0.081668064 -0.0087200655
0.02445876 0.040885083 0.02069338 0.040345963 0.050396703 -0.055552155 0.0011626465 0.071056075
-0.049127683 -0.051246274 -0.037955917 -0.037720144 -0.056651484 -0.05612471 -0.082588606 -0.047247786
0.04234039 0.070438124 0.014569897 0.046650346 0.06204274 0.011649006 -0.05440284 0.01386908
0.016758705 -0.068324775 0.08511376 -0.035891704 0.08194109 0.07239072 0.08613392 0.03391038
0.11569046 -0.027835466 -0.052327026 0.072789825 0.0033910763 -0.051242262 0.020003349 -0.023811504
0.045721117 0.07864908 -0.04812911 0.009915104 0.04277906 0.035370268 0.06566702 0.077999726
0.056094848 -0.006758603 -0.008363665 0.048583288 -0.009077069 0.0408361 -0.08055569 -0.066029705
0.027257852 0.031252448 -0.09331944 -0.0029857827 0.007687786 0.01188739 0.046017203 0.07676737
0.0072288164 -0.032631803 -0.086752795 -0.029611912 0.013371463 -0.08287914 0.081820205 0.07329025
-0.023757514 0.079482876 -0.088265896 0.034219224 -0.06463241 0.06201966 0.07541193 0.12038787
-0.06624542 -0.10398145 0.062393952 0.055492505 -0.11291792 0.012500224 -0.13483989 -0.035834566
0.008413299 0.11349379 0.016826194 0.0753387 0.0639242 0.041148447 0.07212789 -0.06838107
-0.07615286 -0.021939239 0.03257948 0.08805651 -0.037995838 -0.009832309 -0.024075786 0.046244986
-0.06745082 0.060403712 0.0366837 -0.08960222 -0.02223137 0.05315479 -0.115589544 0.019332219
-0.022111129 -0.045839794 0.020630693 -0.0030664105 -0.01766333 0.07375464 -0.015114782 0.00026469704
0.08101906 -0.073357515 -0.052163586 0.08438763 -0.041087143 -0.01689102 0.057105016 0.06370615
-0.08429831 0.035652123 -0.024814535 -0.060188916 0.098586895 0.03967624 -0.07229795 0.034013852
0.02796395 -0.08172592 -0.051238038 0.046553865 0.05889873 -0.0041602454 0.017031373 -0.032012682
0.15754916 -0.056612942 -0.045293063 0.019277593 -0.069757424 -0.049154177 -0.05961815 0.049756438

bias f4 [128]
00000000: 9852 9fbd 2706 303d d455 b2bc 22ac e23d
00000010: d9af 80bd 79ed 81bd 53d9 d83a 25d3 95bd
00000020: 8d49 ccbc 7809 153d 4cc2 843c b8c3 a4bc
00000030: 0bb6 963d 4e54 933d b65d 863d 8942 523c
00000040: fa9e 4dbd ed9d 20bd 9315 963d ec74 863c
00000050: 8b37 57bd f75a a73d 6df0 103d 68f1 aebc
00000060: 28d4 d93c d344 3cbd 1f33 7cbd 671a 693d
00000070: 5e27 c5bc fd26 3b3d 6290 973d 780b d93c
00000080: 5eba 293d 3666 a5bd bfcf b93d a540 7c3d
00000090: 88f0 01bd ba28 8bbd 8900 dabc e19b e8bc
000000a0: 2cf3 8cbc 8ebe 19bd d3e2 73bd 1762 9a3d
000000b0: 475a ac3d e483 6c3b 5db7 dd3c 7e52 ee3b
000000c0: aae8 9f3d f5c2 c13b 8e0f 093d 3521 4a3d
000000d0: 2251 fd3b 3c8e e03c ccc0 82bd efcd af3d
000000e0: fc2e bebb 9251 43bb a56b c33d 4443 fcbb
000000f0: a00d 8b3d 36ee 7f3d 565a 89bd f4c7 33bd
00000100: c4fb ddbb e755 163d 029c 4e3d 27bf 2a3d
00000110: 1e4e c0bd d5e3 8b3d dad1 55bd 4871 c93b
00000120: e18b 7f3d 536e 05bc f686 b63c 78af c23c
00000130: 7601 c53d dbab a23d 5c2d 8c3d d9a6 7ebd
00000140: 2dce 30bd 25ce 133d 8ea0 9cbd 2432 813c
00000150: e2f0 963d ed12 1e3c 8551 70bd b896 6fbd
00000160: ba29 75bd 571a 99bc fc8a 553d 03b2 073d
00000170: f1ba bc3d e1e3 ccbc 8c23 44bb 70da 23bc
00000180: 3e5e 17bd 9ddb aabc 58a5 8d3c 4245 0a3d
00000190: b84a 983d ee41 123d 72fd 883d 2670 ddbc
000001a0: f090 153d e800 843d c673 8cbd 0ab7 43bd
000001b0: 19ca ac3d 6cf4 4e3c 6315 bebd 86f4 973d
000001c0: 10b6 733c af6b b93d e264 7b3d 1421 b63d
000001d0: 11e2 76bd 3e7b 413b fd67 ef3c bae2 b33d
000001e0: 9e83 acbd fe54 c03c fa6d 85bd cae3 813d
000001f0: b888 bd3d e389 333d 1e03 46bd 7262 5bbd
-0.077794254 0.042974617 -0.021769442 0.11067988 -0.0628354 -0.063441224 0.001654426 -0.07315663
-0.024937415 0.036385983 0.01620593 -0.020112857 0.07358941 0.07193814 0.06560843 0.012833246
-0.05020044 -0.03921311 0.07328334 0.016413175 -0.052543204 0.08171647 0.035385538 -0.021355346
0.026590422 -0.045964073 -0.06157219 0.056909945 -0.024066623 0.04569148 0.07400586 0.026494727
0.0414375 -0.08076136 0.090728275 0.061585087 -0.03172353 -0.06794877 -0.026611583 -0.028394641
-0.017205797 -0.037535243 -0.05954249 0.075382404 0.084156565 0.0036089355 0.027064973 0.0072730174
0.07808049 0.0059131333 0.0334621 0.049348075 0.007730619 0.027411573 -0.06384429 0.085842006
-0.005803941 -0.0029803258 0.09542016 -0.0076984484 0.06789708 0.062483035 -0.06706683 -0.043891862
-0.0067743976 0.036703017 0.05044175 0.041686203 -0.093899 0.06830565 -0.052202083 0.0061475374
0.06238926 -0.008143979 0.022281151 0.02376531 0.09619419 0.07942935 0.06844589 -0.062170837
-0.043165375 0.036085267 -0.07647811 0.01577098 0.073701635 0.009648067 -0.058671493 -0.058493346
-0.059854247 -0.018689318 0.0521345 0.03312875 0.09215344 -0.025011005 -0.0029928414 -0.01000081
-0.03695511 -0.020856673 0.017290756 0.033757456 0.074361265 0.035707407 0.06688966 -0.027031016
0.036515176 0.06445485 -0.068580195 -0.04778198 0.084369846 0.012631517 -0.09281423 0.07419686
0.01487495 0.09053742 0.061375506 0.08893028 -0.060274187 0.002952292 0.02922439 0.08783479
-0.084235415 0.023478027 -0.06515117 0.063422754 0.09254593 0.04383267 -0.048342817 -0.05356068

weight f4 [64, 128]
00000000: 731d 57bd e5d9 873d e3e7 b53d e351 95bd
00000010: ddaa 29bd 226a 5bbd 0056 4a3d 7bd5 253d
00000020: b82b c73d e91e 783d 3ac5 713d fec7 343d
00000030: 6471 88bd e800 bebd 8eac 7dbd 7b3a adbd
00000040: 8399 b2bd f952 a83d c4ea 76bb f3df 3fbd
00000050: e0f0 9839 8eef 743d 2149 633c 6922 ae3d
00000060: 1298 1b3d 8871 953d 14ae 2c39 2c8f dabd
00000070: 8a37 d93d 520f 2d3d cdcc 273d 7b97 573c
00000080: ebdd b9ba 19d0 dd3c a5c9 4dbd 0735 4bbd
00000090: 3377 ecbc 0593 2dbc 483e bfbd 1a40 283d
000000a0: bf32 65bc ba3e 643c 08b8 383d 06e6 fdbb
000000b0: 75d4 463c 1c31 dcbd 344e a9bd dd94 fcbc
000000c0: 4b7c ec3d 3043 c6bb 5e17 963c 879f 37bd
000000d0: 16d4 b8ba 89ea a8bd 3d0c fe3c 7271 26bc
000000e0: 6d5d 31bc a946 a2b8 2c4c b33d 79bf 71bd
000000f0: 1aca 433d f513 3a39 dba9 81bd 4c8c 05bd
00000100: 5349 5bbc f0d5 64bd 43a2 48bd d429 7abc
00000110: 1edd f7bc 1b68 01bd 6a7c 363d c44f 0dbc
00000120: d9e5 c9bb 2ed9 2b3c 54e6 f03c b5b3 6c3d
00000130: db30 b13d bd38 b1bd a7b1 333d 8d29 8fbd
00000140: 4238 0bbd b9fb 753d 42cf 8c3c 643b b13d
00000150: 8ee4 9e3d 4277 b4bc a743 a83d 5aa3 233c
00000160: 8538 69bd 11cd 21bc 671f 383d 68e9 3cbc
00000170: 779b 9d3d 19dc 2dbd 3cc0 18bc 3d13 503c
00000180: 2f7c 993d 244b b5bd 8777 97bc 6d3e 58bd
00000190: 5890 a33d 45b1 943c c71d e1bd 6c05 5a3c
000001a0: 2429 283d d5fd e2bc a4f2 ce3d f0a8 6dbc
000001b0: 9f21 22bd 13f2 303d 884b e1bc 2c95 9b3d
000001c0: a67b 823d c166 a0bb 3f74 803d 5c9d 653c
000001d0: 474b f43c 4569 92bc 013e 923d a922 0fbd
000001e0: fe33 01bd 63c1 eb3d 1e65 bc3b 365b 313d
000001f0: bb33 843d 7c81 5e39 87a4 c2bc 11cf dc3c
00000200: d4ff d5bc 3463 473d 8d7f 003d 0010 073e
00000210: 38b2 3f3d eab6 8b3b 67b2 1bbc 109e 943d
00000220: 8ad8 6c3c 2770 39bd dcae 1d3d 7cd2 993d
00000230: 7cbc 05bc 48f7 ae3d c293 43bd 4db1 693d
00000240: 0cbd e53c 9992 2b3d bd48 993c e62a 2bbd
00000250: 9597 ca3d 7e46 9dbd 280c cc3d 63ac 073e
00000260: 2add 70bd abad ad3d afe3 b0bd ed1d d83d
00000270: 2efc 413d 3810 cd3d 5e36 c9bd 5737 de3d
00000280: d3a4 51bd 9dcc bd3d a378 51bd 667a 893d
00000290: d4df 09be c3e6 843d 05f6 bf3d 2eeb babd
000002a0: 69cb 5c3d f160 513d b814 233c cda8 463d
000002b0: a0f6 e6bc f80f e83d 24ab 563d d10a 9d3d
000002c0: a68c 4a3d 2f75 323e c46f 283e a93e 29bd
000002d0: b4bd a43d 34c7 b0bd 2cec 92bd 4eca a8bc
000002e0: 4e57 693d 2fbf 34bd 5d42 463d 8873 31bc
000002f0: 43f1 3f3d 0134 e4bc 4da0 023d 613c 2fbd
00000300: 9b69 a53c 9f94 d2bd 19d6 05bd 4f84 053e
00000310: b68e fa3b 3152 1f3d 1477 2f3d 264a 3ebd
00000320: 98c0 69bd 64c8 893d 569c 0a3c d0e9 d03c
00000330: 05bc c83d eab5 6bbd d437 a63d db73 10ba
00000340: 0e46 1b3d f932 acbd 0f9b 223d 60ce 4f3d
00000350: 297c ebba 9d8f 303d 288d bfbc 138b a73c
00000360: 4484 a23c 6377 b6bd 0e2f 96bd 3313 72bd
00000370: 4051 cbbd 2929 85bb 0984 7bbd 3a72 363d
00000380: ec55 443d b923 313e c442 d2bc 595c 10bd
00000390: 8cea 7dbd 93e7 9a3d c279 bfbb f455 163d
000003a0: c785 833c b4ed edbd 0c42 b73d 962b e1bd
000003b0: 2827 913d e47d 0f3d 8c49 cb3c bfa9 15bd
000003c0: 2b83 49bd c033 ea3b 9408 b83c 074f 17bd
000003d0: 9e9c 583e 3fae 7ebc b106 653d afed 763d
000003e0: a4fb 5b3d 2ba3 ecbd cd68 ba3b eb2a 78bd
000003f0: fe42 353d 826e ad3c 437e 843d b98b 10bd
-0.05251832 0.06633357 0.088821195 -0.07291009 -0.041422714 -0.053568013 0.049398422 0.040486794
0.097251356 0.060576353 0.05902598 0.04413604 -0.066622525 -0.092775166 -0.06193214 -0.0845842
-0.08720686 0.08218951 -0.0037676552 -0.046844434 0.00029171165 0.05979877 0.013872416 0.08502657
0.037986822 0.07297045 0.00016468047 -0.10671839 0.10606296 0.04225094 0.040966798 0.013158674
-0.0014180517 0.027076768 -0.05024113 -0.049611118 -0.028865432 -0.010594134 -0.09338051 0.041076757
-0.01398915 0.013930971 0.04509738 -0.007748368 0.012135615 -0.10751554 -0.08266869 -0.030832702
0.115471445 -0.00605049 0.01832169 -0.04482987 -0.0014101292 -0.08247859 0.031011695 -0.010158883
-0.010825497 -7.7379234e-05 0.08754763 -0.059020493 0.04780016 0.00017745777 -0.063312255 -0.0326045
-0.013384181 -0.05586809 -0.04898287 -0.015268762 -0.030256804 -0.031593423 0.044552244 -0.008624975
-0.006161433 0.010488791 0.029406704 0.05778857 0.086518966 -0.086534 0.043870594 -0.06990347
-0.0339892 0.060054515 0.017188672 0.08653906 0.07758437 -0.022029523 0.08216029 0.0099876765
-0.056938667 -0.009875552 0.044951823 -0.011530258 0.07695668 -0.04244623 -0.009323176 0.012699899
0.07494389 -0.088522226 -0.018489612 -0.05279391 0.07986516 0.018150935 -0.10992008 0.013306957
0.04105486 -0.027708927 0.10104874 -0.01450561 -0.039582845 0.04319961 -0.027501836 0.07596812
0.0637124 -0.0048950617 0.06272172 0.014014568 0.029821051 -0.017872462 0.071407326 -0.034945164
-0.031543724 0.11511495 0.005749359 0.043299876 0.06455179 0.00021219807 -0.023760093 0.026954206
-0.026122965 0.04867859 0.031371642 0.13189697 0.046800822 0.0042637484 -0.009502984 0.072567105
0.014455924 -0.045272972 0.038496837 0.0751085 -0.008162614 0.08543259 -0.047748335 0.057053853
0.028044246 0.041887853 0.018711442 -0.041788958 0.09892193 -0.07679461 0.09963256 0.13249354
-0.05880467 0.0848039 -0.08637177 0.10552583 0.047359638 0.10012859 -0.09824823 0.10850399
-0.05118258 0.092675425 -0.05114044 0.06712799 -0.1346429 0.06489327 0.093730964 -0.09126888
0.053904925 0.05111784 0.00995367 0.048500825 -0.028193772 0.11331171 0.052409306 0.07668079
0.04945054 0.17427514 0.16448885 -0.041319523 0.080439955 -0.08631745 -0.071739525 -0.020604279
0.056968026 -0.04412764 0.048403133 -0.010830767 0.046860944 -0.027856829 0.031891156 -0.04278219
0.020191958 -0.102822535 -0.032674883 0.13038753 0.007646407 0.038896743 0.04283817 -0.046457432
-0.057068437 0.067276746 0.008460125 0.025502115 0.09801487 -0.057546534 0.08116117 -0.0005510428
0.037908606 -0.0840816 0.039698657 0.050733924 -0.001796608 0.04310571 -0.023382738 0.020452058
0.01983846 -0.0890949 -0.07333194 -0.05910034 -0.099276066 -0.0040637446 -0.061405215 0.04454253
0.047933504 0.17298783 -0.025666602 -0.03524432 -0.06199126 0.075637005 -0.005843372 0.036703065
0.016055001 -0.11617604 0.08948144 -0.109946415 0.070875466 0.035032168 0.024815343 -0.036538836
-0.049197357 0.0071472824 0.022465028 -0.0369406 0.21153495 -0.015544473 0.055914585 0.060285266
0.05370678 -0.11554559 0.0056887628 -0.060587805 0.04425334 0.021170858 0.06469395 -0.0352895

bias f4 [64]
00000000: 56ff fbbc ec42 adbd 8a03 5e3d d611 5fbb
00000010: b15b a93d 6126 8f3d 4a98 533d 4cd2 95bd
00000020: 18c2 753c aa5a 3d3d 4570 cc3d 0055 8cbd
00000030: 422d 75bd e968 ac3c 7459 223d 9812 4cbd
00000040: e110 98bd 4027 903d d63f df3d a749 7b3d
00000050: 07c5 c23d a7e3 eebc 42ef 99bd cd02 c63d
00000060: b295 893c 15cf 9a3d dbc5 28bc 9d17 a73b
00000070: 3435 93bd f594 b23d 525e 4ebd ff6d 39bc
00000080: 255c 01bd b1dd 9d3d f880 6c3d 2e53 82bd
00000090: 16b9 3f3b 0a2f ef3c ebc8 843d 1899 913d
000000a0: 4283 833d 20e8 9a3d 46b6 05bd 4221 9e3d
000000b0: f889 753d 18c9 9b3d d00e 853d fbe1 803d
000000c0: 4303 b1bd f1fb 023c 64aa c3bd 7cb2 9d3d
000000d0: 4952 60bc 656f 82bd b228 f13d b2d2 c53d
000000e0: 3863 8e3d ac3b f5bc 5efa 663d f769 de3d
000000f0: 81aa a33d 7a18 bc3d 7560 b7ba 5c8f 4bbb
-0.030761402 -0.0846003 0.054202594 -0.003403773 0.08269442 0.06989742 0.051658906 -0.073155016
0.014999889 0.046229042 0.09982351 -0.0685215 -0.059857614 0.021046119 0.03963609 -0.04982242
-0.074250944 0.07038736 0.109008476 0.061349537 0.09510236 -0.029161287 -0.07516338 0.09668503
0.016795013 0.07559029 -0.010301079 0.0050992505 -0.07187882 0.087198175 -0.05038292 -0.011317729
-0.031582016 0.077083 0.05774018 -0.063635215 0.0029254607 0.029197235 0.064836346 0.071092784
0.0642152 0.075638056 -0.032644533 0.07721187 0.05994603 0.07606715 0.06496966 0.06293102
-0.086432 0.007994638 -0.09553984 0.07700059 -0.013691493 -0.06368903 0.1177534 0.096593276
0.06952518 -0.02993568 0.056391113 0.10860055 0.079915054 0.09184356 -0.0013990538 -0.003106079

weight f4 [10, 64]
00000000: ae21 f53d bf2b abbe 35c8 fcbe 0c2d 113d
00000010: 9230 10bd 4c92 703d 9579 363e 0de6 fe3c
00000020: 0e3d 87bc c553 be3e 7f38 19bd 5a0e 55bd
00000030: bcc0 8bbd 4182 433d 354e 43be ccc5 1e3e
00000040: 9406 c7bd 5c17 be3d 4bc9 b23e f543 39bd
00000050: 7327 f6bd 14af a33b 67e6 1d3d 1145 8b3e
00000060: df0c 40be da58 febd 2024 4a3c 2796 d1be
00000070: 0726 ffbd 45c9 adbd 335c d33d e21d cd3d
00000080: b601 b9bd 0b4a 6d3d 0620 9c3e d095 ff3d
00000090: 9c0d b03e 76e2 393e 24dd 38bd 4687 253d
000000a0: 9968 b4bd 71ca 6cbe 4ada 8bbd e9af 593c
000000b0: c862 703d 96b2 85be 3e28 613d 8ed0 cfbb
000000c0: 3c37 fb3d 296e 69be 5732 99bd 655c 2c3c
000000d0: ac41 8cbe 4d5a f53d 6354 bb3e cd98 5fbd
000000e0: 9c66 ec3d f543 33bd a641 40be daf0 443e
000000f0: ca84 c83d 403b 8fbc 73ce f5bd a276 f6bd
00000100: d2f8 db3c f0e1 893e 78ee cd3e 1f5e 41be
00000110: 6973 14be c3c5 93bd c95a 07be d87e 39bd
00000120: 944e 73be 78ea bbbe 0483 253d 016d c7bd
00000130: ffc6 6ebd ce3b fa3d b161 8f3e 57d1 0bbd
00000140: 344a 01bd 0520 113d 13d1 42be fa58 b63d
00000150: 8062 8b3e 047a a63d c51b e53d d674 b1be
00000160: af86 d93d e3d4 92be 08fe 743e 505c c3bc
00000170: f123 81bd a7d5 7dbd 76c5 8fbd 9871 07bd
00000180: f55c 933d 64c8 8d3d e339 1bbd a81c a7bd
00000190: 5fd6 1cbe 7347 99be da68 2b3d 208c 2e3e
000001a0: 0d52 163e 0241 6dbd 045e 09bd d480 8abe
000001b0: f4c3 6dbe 05b6 d73e d141 963c 6762 9fbd
000001c0: 3632 febd 8652 2a3e ba23 c8bd 5d64 b53e
000001d0: 1e78 b43d 085f f9bc 83c0 80be 3a38 6f3e
000001e0: dc42 03bd 40a8 9cbd f2a0 763e 1648 62be
000001f0: 5933 0cbe e11b 143e a19e 30bd fc75 37be
00000200: a688 b23d 8ae5 43bb 57f3 223e 9fbf 1c3d
00000210: cef7 bf3e 8a2b 553d fd26 c3bc 6d70 043d
00000220: 3618 313e 3d5b a6bc 3f40 81be 23cb 593d
00000230: c030 c6bd 82c9 e03d ebfb 62be 5f85 8d3e
00000240: 7026 bfbd 9c9a 433e 277e f0bb e4e0 a53d
00000250: 8116 263e d9ed f03d 34d5 e5bb 1194 d5bd
00000260: 83ed a63e 79f8 32ba 1176 c83d 3711 edbd
00000270: 326e 9d3d 4f22 cb3d d17b d6bd b45c 61bd
00000280: 605e 7d3c 33d7 403e 0d26 8fbe 8e75 efbd
00000290: f87f 99bd 8cfc 2bbe 9083 193e 1937 013e
000002a0: cd4c fb3d 4789 72bc e743 3e3e 180c aebe
000002b0: 9aef bc3b 9143 9bbe 5f49 24be 4dc7 4abe
000002c0: c051 b8bb 0ecb 2f3e 7a4a 0abc ba53 8cbe
000002d0: f3da 1dbd 9dd0 e0bd 2e35 d03e 88b8 9c3e
000002e0: 0c2d 313d c5c0 a1bd 0d30 9bbd 05e2 a03e
000002f0: bf07 693e 67f7 89bd e2b1 28be 11e0 303e
00000300: 034e 27be b95b f83d 7fc8 88bd 8d03 223e
00000310: cbf1 043f c72c c8bd ddfb 213e e6cb acbd
00000320: d939 1a3e 50b3 893e 2c3a 8d3e d48e e2bd
00000330: cfce 143e d021 5cbd 6d81 98bc 75b8 5ebc
00000340: ee93 a03d 28c8 f2bd 23c8 01be efeb 68bd
00000350: 9b46 593e 41cf d3bc 0720 00be 335a 2fbd
00000360: f7a9 993d 6b67 10be 537f 853e bc57 6f3e
00000370: 7e32 283c 658c 88bc e8d7 c43c 734a df3d
00000380: 7dc8 1cbe 444a 3abe 9d3d b0bc 08eb d33e
00000390: 689c 3dbe 8a50 b9be 9f5e 38be ac26 4dbe
000003a0: 3736 4c3d ab9d 253e 6f34 123e 1956 483e
000003b0: 987f 85be 348b 59bd 52be 99be 2b69 c4bd
000003c0: 2026 59bd 025c 76be 9a50 88bd 218f aa3e
000003d0: 5c89 02be 46ff 063e 775e 59be 3512 90be
000003e0: 3df3 a8bd 31f8 f23d 22d0 4bbe 0080 40be
000003f0: 4dcc 0c3d 8dca b8bc ae3d b4bd 4c26 4fbe
0.119693145 -0.33431813 -0.49371496 0.03544335 -0.03520257 0.05873327 0.17819817 0.031115556
-0.016508605 0.37173286 -0.037407394 -0.05201564 -0.068238705 0.04773164 -0.19072802 0.15505141
-0.097180516 0.09281799 0.349192 -0.045230825 -0.12019243 0.004995236 0.038549807 0.2720113
-0.1875491 -0.12419291 0.012337714 -0.4093487 -0.12458425 -0.08485655 0.1032032 0.10015465
-0.090335295 0.05793194 0.30493182 0.12479746 0.34385383 0.18152794 -0.04513277 0.04041221
-0.08809013 -0.231241 -0.06828745 0.013286569 0.058687955 -0.26112813 0.05497002 -0.0063420003
0.122663945 -0.22795929 -0.07480305 0.010520075 -0.27393854 0.11980114 0.3658782 -0.05458908
0.11543009 -0.04376598 -0.18775043 0.19232503 0.097909525 -0.017484307 -0.12002268 -0.12034346
0.026852045 0.2693019 0.40221 -0.1888356 -0.1449715 -0.072154544 -0.13218226 -0.045286983
-0.23760444 -0.36702323 0.04040815 -0.09737588 -0.058295246 0.12218438 0.2800422 -0.03413519
-0.031564906 0.035430927 -0.19025068 0.0890369 0.27223587 0.081287414 0.11186937 -0.3465945
0.10621392 -0.28678045 0.2392503 -0.023847729 -0.063056834 -0.061971333 -0.070200846 -0.033067316
0.071954645 0.06922987 -0.037897002 -0.081597626 -0.15316151 -0.29937324 0.04184804 0.17045641
0.14679737 -0.057923324 -0.033536926 -0.27051413 -0.23219281 0.42131057 0.01834193 -0.07782441
-0.12411921 0.16633043 -0.09772439 0.35428134 0.08811973 -0.030440822 -0.25146875 0.23361292
-0.032046184 -0.07649279 0.24084833 -0.22097811 -0.13691463 0.1446376 -0.04312003 -0.17916101
0.0871747 -0.0029891455 0.1591314 0.03826868 0.37493747 0.052043475 -0.023822302 0.03233378
0.17294392 -0.020307178 -0.25244328 0.053172242 -0.09677267 0.109759346 -0.22166412 0.27640817
-0.09333503 0.19101948 -0.0073392573 0.08099535 0.16219522 0.11764116 -0.007013941 -0.10428632
0.32603082 -0.00068271864 0.097881444 -0.11575549 0.07687034 0.09918653 -0.10472835 -0.05502005
0.015464395 0.18832092 -0.27958718 -0.11692344 -0.07495111 -0.16795558 0.14991593 0.12618674
0.12270508 -0.014803237 0.1858059 -0.33993602 0.0057658674 -0.30324987 -0.16043614 -0.1980259
-0.0056249797 0.17167303 -0.008440608 -0.27407628 -0.038538884 -0.1097729 0.40665573 0.30609536
0.04325585 -0.07898096 -0.07577524 0.3142244 0.22756861 -0.067366414 -0.16474107 0.17272975
-0.16338353 0.1212687 -0.066788666 0.15821667 0.51931447 -0.097741656 0.15818734 -0.08437328
0.1506113 0.26894617 0.27583444 -0.110623986 0.14532016 -0.053743184 -0.018616403 -0.013593783
0.07840715 -0.11854583 -0.12674002 -0.05686563 0.2121834 -0.025855662 -0.12512217 -0.04281063
0.07503121 -0.14101951 0.26073703 0.23373312 0.0102659445 -0.016668508 0.024028733 0.10902872
-0.15310855 -0.18192393 -0.021513755 0.41390252 -0.18516695 -0.3619426 -0.18004845 -0.20034283
0.04985639 0.16173427 0.14277814 0.19564094 -0.2607391 -0.05311127 -0.30028015 -0.09590372
-0.053014874 -0.24058536 -0.066559985 0.33312324 -0.12747711 0.13183317 -0.21227442 -0.2813889
-0.08249519 0.11863745 -0.19903615 -0.18798828 0.034374524 -0.022557521 -0.08800827 -0.20229453

bias f4 [10]
00000000: 43ad 023c af9e 103d 1fb2 f13d 19d5 ba3d
00000010: 6f69 18be 51c4 713c b27a aabd 6d67 e73d
00000020: f353 b9bd bb68 08bc
0.007975879 0.035307582 0.11801552 0.091226764 -0.1488397 0.014756278 -0.083241835 0.11299024
-0.09049215 -0.008325751
